…
, num_block=50000, num_epoch=400, num_iter_ft=5, num_iteration=6, num_train_dec=1, num_train_enc=5, optimizer='adam', print_pos_ber=False, print_pos_power=False, print_test_traj=False, radar_power=5.0, radar_prob=0.05, snr_points=12, snr_test_end=4.0, snr_test_start=-1.5, test_channel_mode='group_norm', test_ratio=1, train_channel_high=2.0, train_channel_low=2.0, train_channel_mode='group_norm', train_dec_channel_high=2.0, train_dec_channel_low=-1.5, vv=5)
Channel_AE(
  (enc): ENC_interCNN(
    (enc_cnn_1): DataParallel(
      (module): SameShapeConv1d(
        (cnns): ModuleList(
          (0): Conv1d(1, 100, kernel_size=(5,), stride=(1,), padding=(2,))
          (1): Conv1d(100, 100, kernel_size=(5,), stride=(1,), padding=(2,))
        )
      )
    )
    (enc_linear_1): DataParallel(
      (module): Linear(in_features=100, out_features=1, bias=True)
    )
    (enc_cnn_2): DataParallel(
      (module): SameShapeConv1d(
        (cnns): ModuleList(
          (0): Conv1d(1, 100, kernel_size=(5,), stride=(1,), padding=(2,))
          (1): Conv1d(100, 100, kernel_size=(5,), stride=(1,), padding=(2,))
        )
      )
    )
    (enc_linear_2): DataParallel(
      (module): Linear(in_features=100, out_features=1, bias=True)
    )
    (enc_cnn_3): DataParallel(
      (module): SameShapeConv1d(
        (cnns): ModuleList(
          (0): Conv1d(1, 100, kernel_size=(5,), stride=(1,), padding=(2,))
          (1): Conv1d(100, 100, kernel_size=(5,), stride=(1,), padding=(2,))
        )
      )
    )
    (enc_linear_3): DataParallel(
      (module): Linear(in_features=100, out_features=1, bias=True)
    )
    (interleaver): Interleaver()
  )
  (dec): DEC_LargeCNN(
    (interleaver): Interleaver()
    (deinterleaver): DeInterleaver()
    (dec1_cnns): ModuleList(
      (0): DataParallel(
        (module): SameShapeConv1d(
          (cnns): ModuleList(
            (0): Conv1d(7, 100, kernel_size=(5,), stride=(1,), padding=(2,))
            (1): Conv1d(100, 100, kernel_size=(5,), stride=(1,), padding=(2,))
            (2): Conv1d(100, 100, kernel_size=(5,), stride=(1,), padding=(2,))
            (3): Conv1d(100, 100, kernel_size=(5,), stride=(1,), padding=(2,))
            (4): Conv1d(100, 100, kernel_size=(5,), stride=(1,), padding=(2,))
          )
        )
      )
      (1): DataParallel(
        (module): SameShapeConv1d(
          (cnns): ModuleList(
            (0): Conv1d(7, 100, kernel_size=(5,), stride=(1,), padding=(2,))
            (1): Conv1d(100, 100, kernel_size=(5,), stride=(1,), padding=(2,))
            (2): Conv1d(100, 100, kernel_size=(5,), stride=(1,), padding=(2,))
            (3): Conv1d(100, 100, kernel_size=(5,), stride=(1,), padding=(2,))
            (4): Conv1d(100, 100, kernel_size=(5,), stride=(1,), padding=(2,))
          )
        )
      )
      (2): DataParallel(
        (module): SameShapeConv1d(
          (cnns): ModuleList(
            (0): Conv1d(7, 100, kernel_size=(5,), stride=(1,), padding=(2,))
            (1): Conv1d(100, 100, kernel_size=(5,), stride=(1,), padding=(2,))
            (2): Conv1d(100, 100, kernel_size=(5,), stride=(1,), padding=(2,))
            (3): Conv1d(100, 100, kernel_size=(5,), stride=(1,), padding=(2,))
            (4): Conv1d(100, 100, kernel_size=(5,), stride=(1,), padding=(2,))
          )
        )
      )
      (3): DataParallel(
        (module): SameShapeConv1d(
          (cnns): ModuleList(
            (0): Conv1d(7, 100, kernel_size=(5,), stride=(1,), padding=(2,))
            (1): Conv1d(100, 100, kernel_size=(5,), stride=(1,), padding=(2,))
            (2): Conv1d(100, 100, kernel_size=(5,), stride=(1,), padding=(2,))
            (3): Conv1d(100, 100, kernel_size=(5,), stride=(1,), padding=(2,))
            (4): Conv1d(100, 100, kernel_size=(5,), stride=(1,), padding=(2,))
          )
        )
      )
      (4): DataParallel(
        (module): SameShapeConv1d(
          (cnns): ModuleList(
            (0): Conv1d(7, 100, kernel_size=(5,), stride=(1,), padding=(2,))
            (1): Conv1d(100, 100, kernel_size=(5,), stride=(1,), padding=(2,))
            (2): Conv1d(100, 100, kernel_size=(5,), stride=(1,), padding=(2,))
            (3): Conv1d(100, 100, kernel_size=(5,), stride=(1,), padding=(2,))
            (4): Conv1d(100, 100, kernel_size=(5,), stride=(1,), padding=(2,))
          )
        )
      )
      (5): DataParallel(
        (module): SameShapeConv1d(
          (cnns): ModuleList(
            (0): Conv1d(7, 100, kernel_size=(5,), stride=(1,), padding=(2,))
            (1): Conv1d(100, 100, kernel_size=(5,), stride=(1,), padding=(2,))
            (2): Conv1d(100, 100, kernel_size=(5,), stride=(1,), padding=(2,))
            (3): Conv1d(100, 100, kernel_size=(5,), stride=(1,), padding=(2,))
            (4): Conv1d(100, 100, kernel_size=(5,), stride=(1,), padding=(2,))
          )
        )
      )
    )
    (dec2_cnns): ModuleList(
      (0): DataParallel(
        (module): SameShapeConv1d(
          (cnns): ModuleList(
            (0): Conv1d(7, 100, kernel_size=(5,), stride=(1,), padding=(2,))
            (1): Conv1d(100, 100, kernel_size=(5,), stride=(1,), padding=(2,))
            (2): Conv1d(100, 100, kernel_size=(5,), stride=(1,), padding=(2,))
            (3): Conv1d(100, 100, kernel_size=(5,), stride=(1,), padding=(2,))
            (4): Conv1d(100, 100, kernel_size=(5,), stride=(1,), padding=(2,))
          )
        )
      )
      (1): DataParallel(
        (module): SameShapeConv1d(
          (cnns): ModuleList(
            (0): Conv1d(7, 100, kernel_size=(5,), stride=(1,), padding=(2,))
            (1): Conv1d(100, 100, kernel_size=(5,), stride=(1,), padding=(2,))
            (2): Conv1d(100, 100, kernel_size=(5,), stride=(1,), padding=(2,))
            (3): Conv1d(100, 100, kernel_size=(5,), stride=(1,), padding=(2,))
            (4): Conv1d(100, 100, kernel_size=(5,), stride=(1,), padding=(2,))
          )
        )
      )
      (2): DataParallel(
        (module): SameShapeConv1d(
          (cnns): ModuleList(
            (0): Conv1d(7, 100, kernel_size=(5,), stride=(1,), padding=(2,))
            (1): Conv1d(100, 100, kernel_size=(5,), stride=(1,), padding=(2,))
            (2): Conv1d(100, 100, kernel_size=(5,), stride=(1,), padding=(2,))
            (3): Conv1d(100, 100, kernel_size=(5,), stride=(1,), padding=(2,))
            (4): Conv1d(100, 100, kernel_size=(5,), stride=(1,), padding=(2,))
          )
        )
      )
      (3): DataParallel(
        (module): SameShapeConv1d(
          (cnns): ModuleList(
            (0): Conv1d(7, 100, kernel_size=(5,), stride=(1,), padding=(2,))
            (1): Conv1d(100, 100, kernel_size=(5,), stride=(1,), padding=(2,))
            (2): Conv1d(100, 100, kernel_size=(5,), stride=(1,), padding=(2,))
            (3): Conv1d(100, 100, kernel_size=(5,), stride=(1,), padding=(2,))
            (4): Conv1d(100, 100, kernel_size=(5,), stride=(1,), padding=(2,))
          )
        )
      )
      (4): DataParallel(
        (module): SameShapeConv1d(
          (cnns): ModuleList(
            (0): Conv1d(7, 100, kernel_size=(5,), stride=(1,), padding=(2,))
            (1): Conv1d(100, 100, kernel_size=(5,), stride=(1,), padding=(2,))
            (2): Conv1d(100, 100, kernel_size=(5,), stride=(1,), padding=(2,))
            (3): Conv1d(100, 100, kernel_size=(5,), stride=(1,), padding=(2,))
            (4): Conv1d(100, 100, kernel_size=(5,), stride=(1,), padding=(2,))
          )
        )
      )
      (5): DataParallel(
        (module): SameShapeConv1d(
          (cnns): ModuleList(
            (0): Conv1d(7, 100, kernel_size=(5,), stride=(1,), padding=(2,))
            (1): Conv1d(100, 100, kernel_size=(5,), stride=(1,), padding=(2,))
            (2): Conv1d(100, 100, kernel_size=(5,), stride=(1,), padding=(2,))
            (3): Conv1d(100, 100, kernel_size=(5,), stride=(1,), padding=(2,))
            (4): Conv1d(100, 100, kernel_size=(5,), stride=(1,), padding=(2,))
          )
        )
      )
    )
    (dec1_outputs): ModuleList(
      (0): DataParallel(
        (module): Linear(in_features=100, out_features=5, bias=True)
      )
      (1): DataParallel(
        (module): Linear(in_features=100, out_features=5, bias=True)
      )
      (2): DataParallel(
        (module): Linear(in_features=100, out_features=5, bias=True)
      )
      (3): DataParallel(
        (module): Linear(in_features=100, out_features=5, bias=True)
      )
      (4): DataParallel(
        (module): Linear(in_features=100, out_features=5, bias=True)
      )
      (5): DataParallel(
        (module): Linear(in_features=100, out_features=5, bias=True)
      )
    )
    (dec2_outputs): ModuleList(
      (0): DataParallel(
        (module): Linear(in_features=100, out_features=5, bias=True)
      )
      (1): DataParallel(
        (module): Linear(in_features=100, out_features=5, bias=True)
      )
      (2): DataParallel(
        (module): Linear(in_features=100, out_features=5, bias=True)
      )
      (3): DataParallel(
        (module): Linear(in_features=100, out_features=5, bias=True)
      )
      (4): DataParallel(
        (module): Linear(in_features=100, out_features=5, bias=True)
      )
      (5): DataParallel(
        (module): Linear(in_features=100, out_features=1, bias=True)
      )
    )
  )
)
====> Epoch: 1 Average loss: 0.69601608  running time 42.67246913909912
====> Epoch: 1 Average loss: 0.69578553  running time 39.20254826545715
====> Epoch: 1 Average loss: 0.69577212  running time 43.94493627548218
====> Epoch: 1 Average loss: 0.69576691  running time 43.83788752555847
====> Epoch: 1 Average loss: 0.69571744  running time 42.87662220001221
…
